static/neural_net_model.onnx (onnx, 1884 bytes, 3 tensors)

hidden_layers.0.weight f4 [32, 8]
00000000: ef75 b13f 276c bf3f b7be 8ebe 3eb2 ba3f
00000010: 52ac 3cc1 95ad 4abf 5fc6 e7be bd3e ae3e
00000020: e014 48bd 5512 a0be d6f7 903e 19fe 6cbe
00000030: 5688 473e 307e 8dbd 2491 69bd 3098 343e
00000040: 52b3 253f 000d 7f3e 3424 353f ea83 17c0
00000050: f896 73bf 87ab 15bd 164c b13e 4066 473e
00000060: 7bc7 c53e 1aa3 9ebe 4c33 c6bf 644f efbe
00000070: 01f1 cd40 0c94 d8be 996e 123f 6cce d1bb
00000080: e295 003e 0ecb 8fbe 9f6c 8b3e d603 30be
00000090: c399 993e 006a cfbd a09e a6be b8fd 52be
000000a0: 6cd3 743e 4a62 9d3d 3b78 5a3d 58f1 47bf
000000b0: 55b6 48be 9be1 c23d 3294 44be 09f9 0c40
000000c0: 10c6 833f 119c 7d3f b0c2 07c0 7893 cebf
000000d0: 6837 27bf fd94 c4bd 53d1 9fbd 5f72 74be
000000e0: 88c1 e33d 9ebe 5e3e a0a5 20bc 673d 3cbe
000000f0: 40b7 a33c b550 1cbe 60f4 ecbc 80d1 18bb
00000100: a87a 54bf debc 59be f2fb 4d3d 8e06 31bf
00000110: d9e6 cb3d b13b 243e 4d47 68bd 97e1 a23d
00000120: 90c8 c2bf de9b 8abf 6fb5 5abf ecf9 923f
00000130: 6ccb 4940 53e1 7e3e 8155 913d 44dd 0dbf
00000140: 156c 8b3e 4235 6a3e c9a7 b03e 80e9 a03d
00000150: 8a44 71be c167 abbe 806e 7f3d e8df 8ebe
00000160: e9b4 4ebe c0c0 8e3c cdc1 adbe 84b0 ce3d
00000170: 479e 27be 6913 96be 261a 6abe 8cbb 46be
00000180: d881 653d 866d 88be 9ae6 263e e01a 10bc
00000190: 125c 763e 255e 92be ac2e 0a3e e2c0 253e
000001a0: b0b1 6d3d c677 89be f17a 8ebe fedc 5dbe
000001b0: 8890 89be 10f3 9dbe 6b6d 62be 7638 3e3e
000001c0: 8a3d 2cbe 5dc0 653f 9a35 00be 9045 ef3e
000001d0: e186 24c0 7862 6fbe 2fb4 883e f079 913e
000001e0: 1e0e b03e f233 1abe d51a 65bf 9567 b8be
000001f0: 9da0 033f 89b0 283e 1d3c aa3d 0e13 ba3f
00000200: 393a b3be a36f 183e be11 eac0 3650 a0be
00000210: 473d 24c1 c984 bd3e cbb7 f3bd 32d6 023f
00000220: 56dc 883d bcc0 89be 5580 afbd 3df1 c9be
00000230: 0e0f 1dbe fcae 273e 99c1 d1be ae53 85be
00000240: 71c0 5bbe 6550 9b3e e435 f13d 609a 913d
00000250: c0fc bd3d 6204 a6be 32d4 263e a210 503e
00000260: e2bf 223e 6051 81bd 6f2e 94be a6b6 30be
00000270: e433 b4bd b024 36bd 9053 a7be 39ce 06be
00000280: ec07 d03d 7093 8bbe eebe eabd e065 3d3d
00000290: 80ff a93b 764f 88be 8009 aabc 1648 3e3e
000002a0: 5c06 90bd 3198 33be 40af afbc 6b0b 34be
000002b0: c477 b0be 5882 08be 70a0 283d c880 623d
000002c0: 6f9d cf3e c9c0 f93e 2ddd b03e f311 7c3f
000002d0: e96c 8a40 ac81 a33e 2169 5cbf e7d0 03bf
000002e0: 7cf6 99bd 33f4 a33e efbe 5cbe b402 9abe
000002f0: eac9 0d3e e644 70be 998d 20be 4811 a0bd
00000300: 0cce c33d 3083 5b3d 3931 35be abd4 62be
00000310: 2ec1 73be 5e7d d5bd 3685 fabd 61f4 99be
00000320: 846c a63c 8e38 383d b035 6e3e 03d8 b73d
00000330: bf6c 85be 5c4b e5bc 96e8 76be 3301 54bd
00000340: dc5f 02be d880 94be f652 e63d d202 c3be
00000350: f1e2 cabd e5d9 fcbd d874 aa3d 979b 583e
00000360: 8e26 c63e 90ec 0f3f 7601 a73e 9adc cbbf
00000370: 0601 9fc0 1be6 013e 2a85 533e 0e88 3ac1
00000380: 20d7 0fbe d660 043e 3968 58be 8a24 233e
00000390: c652 033e f416 8ebe 4a10 5ebe 6b73 b2be
000003a0: f029 bdbe 72eb 21be d9a5 15be 026d a4bd
000003b0: dc50 d83c 8990 34be bac6 3f3e 3e64 b53d
000003c0: f61b d23e adf6 1f3f 7e4a 473f a6bd 3b3f
000003d0: 3046 3840 6c1b 883e ef70 42bf f02a 5c3f
000003e0: 1671 1e3e d877 81bd 5bb1 943e 900b 24bd
000003f0: 0825 45bd ccdc d2bd ea76 0fbe f832 cbbd
1.3864115 1.495488 -0.2787988 1.4585645 -11.79207 -0.79171115 -0.45268533 0.3403224
-0.048848033 -0.31263986 0.28314084 -0.23143806 0.19485602 -0.06908834 -0.057023183 0.1763618
0.64726746 0.24907303 0.70758367 -2.3674264 -0.95152235 -0.036540534 0.3462836 0.19472599
0.38628754 -0.30983812 -1.5484405 -0.46740258 6.4356694 -0.4230045 0.5720001 -0.0064027812
0.12557176 -0.28084606 0.2723131 -0.17188963 0.30000123 -0.1012764 -0.32542896 -0.20604599
0.23908776 0.07684763 0.053337317 -0.78102636 -0.19600804 0.09515687 -0.19197157 2.2027
1.0294819 0.99066263 -2.1212578 -1.6138754 -0.6531892 -0.0959873 -0.07803597 -0.23871754
0.111208975 0.21752402 -0.009805113 -0.18382798 0.019984841 -0.15265162 -0.02892512 -0.002331823
-0.8299966 -0.21263453 0.050289102 -0.69150627 0.0995614 0.16038395 -0.056708623 0.07953184
-1.5217457 -1.0828817 -0.85433096 1.148252 3.153041 0.24890642 0.07096387 -0.5541575
0.27230898 0.22871879 0.3450301 0.078570366 -0.23561302 -0.33477595 0.06236124 -0.27905202
-0.20186199 0.017425895 -0.3393692 0.100922614 -0.16368972 -0.29311684 -0.22861537 -0.19407481
0.05603203 -0.2664606 0.16298905 -0.00879547 0.2405856 -0.28587452 0.13494366 0.1618686
0.058030784 -0.26849192 -0.27828172 -0.21666333 -0.2686808 -0.30849504 -0.22112052 0.18576226
-0.1682035 0.8974665 -0.12520447 0.4673276 -2.5707324 -0.23377407 0.2669997 0.28413343
0.3438577 -0.15058878 -0.8949407 -0.36016527 0.5141695 0.16473593 0.08312247 1.4537065
-0.35005358 0.14886336 -7.314666 -0.31311196 -10.26496 0.3701537 -0.1190029 0.51108086
0.06682651 -0.26904857 -0.08569399 -0.39441863 -0.15337774 0.16375345 -0.40968016 -0.26040405
-0.2146013 0.30334774 0.11777857 0.07109523 0.09276724 -0.3242522 0.16291884 0.20318845
0.1589351 -0.06314349 -0.28941676 -0.17257175 -0.0879896 -0.04446858 -0.3268094 -0.13164605
0.10157761 -0.27260923 -0.11462198 0.046239734 0.0051879287 -0.26623124 -0.020756483 0.18582186
-0.07032463 -0.17538525 -0.02144587 -0.1758248 -0.34466374 -0.13330972 0.04116863 0.055298597
0.405498 0.48779896 0.34543744 0.9846489 4.3257947 0.3193487 -0.86097914 -0.51490635
-0.07517716 0.32022247 -0.2155721 -0.30080187 0.13846555 -0.23463783 -0.15679015 -0.07815796
0.09560785 0.053591907 -0.17694558 -0.22151439 -0.23804161 -0.104243025 -0.12232439 -0.3006926
0.020315416 0.04497581 0.23262668 0.08976748 -0.2605953 -0.027990036 -0.24112162 -0.051758956
-0.1273188 -0.2900455 0.11246292 -0.3808809 -0.09906567 -0.123462476 0.083230674 0.21153103
0.3870129 0.5622034 0.32618302 -1.5926697 -4.968875 0.12685435 0.20656267 -11.658216
-0.14046907 0.12927565 -0.21133508 0.15931907 0.12824544 -0.27751887 -0.21685901 -0.34853682
-0.36946058 -0.15812472 -0.14614047 -0.08028604 0.026405744 -0.17633261 0.18728152 0.0885701
0.41036958 0.6248577 0.7784804 0.73336256 2.879284 0.2658342 -0.75953573 0.8600302
0.15472826 -0.063216865 0.2904156 -0.04005009 -0.04813102 -0.1029602 -0.14010206 -0.09921831

hidden_layers.0.bias f4 [32]
00000000: bea5 793e 593d 8ebe 889c a0bf 95be a3bf
00000010: c022 cbbd 0e8e 083f c1b4 bbbe 7c4f a8bd
00000020: e5e0 6ebd 40df 973f 98e7 36bd 1f70 8a3e
00000030: d8a9 113d 61d9 a83e cb5a 12bf 3329 a6be
00000040: b6cb 75bf c6ae f9bc c801 48bd 28ef 57be
00000050: 8a82 0a3e 2c32 033e 7743 75bd 618f 63be
00000060: 39ec 9ebe bc8d 8b3d e235 f23d f283 693e
00000070: 0062 333c a33e c03a e0b2 95bf aaa7 5b3e
0.24379632 -0.2778118 -1.254777 -1.2792536 -0.099187374 0.5334176 -0.36661342 -0.082182854
-0.058319945 1.1865005 -0.04465446 0.27038667 0.035562366 0.32978347 -0.5716979 -0.32453308
-0.96013963 -0.030478846 -0.048829824 -0.21087325 0.13526359 0.12812108 -0.059878793 -0.22222663
-0.310396 0.06814143 0.118266836 0.2280424 0.010948658 0.0014667105 -1.1695213 0.21450678

output_layer.weight f4 [1, 32]
00000000: 6e3e 28be 37f1 b43d 4cfd e83d da32 a4bd
00000010: d462 3fbd b4f8 f3bd d02b bd3d 6abe ae3d
00000020: bcb0 a8be 63f9 5bbd 063f c3bd 2db2 0a3e
00000030: 2e37 77bd 7a68 eb3d a1ac 613d 563d 003e
00000040: f78d 96bd c935 e13b 291b b4bd c47a 093d
00000050: b314 173e 70e0 e13c 9ac0 cfbd 50ca 153c
00000060: 4da6 233e ab4a 39bd 254a 963d f8e5 00be
00000070: fb79 2f3e 72a3 8f3c d3af e03d 685f 09be
-0.16430065 0.088350706 0.113764375 -0.08017512 -0.04672511 -0.11912671 0.09236872 0.08532412
-0.32947338 -0.05370463 -0.09533505 0.13544531 -0.060355358 0.11494537 0.055096272 0.12523398
-0.073512964 0.006872867 -0.08794243 0.033564344 0.1475399 0.02757284 -0.10144158 0.009142473
0.15981407 -0.045237225 0.07338361 -0.12587726 0.17136376 0.017533991 0.10971036 -0.13415301
